data.pth (torch, 60567 bytes, 6 tensors)

l1.weight f4 [50, 182]
0	0x3e6e6263	0.23279719
1	0x3ca49cae	0.020094242
2	0x3edc9ddf	0.43089196
3	0x3e4e1010	0.20123315
4	0x3ea9367b	0.33049378
5	0x3eab23fc	0.3342589
6	0x3dff8a15	0.12477509
7	0x3ad956c4	0.0016581644
8	0x3e285ed2	0.16442421
9	0xbbd7a4b1	-0.006580912
10	0x3ea90024	0.3300792
11	0xbd8cebe9	-0.06880934
12	0x3e8cead3	0.27522907
13	0x3e9c04e7	0.3047249
14	0x3db19409	0.086708136
15	0xbb0dc565	-0.002163255
16	0xbe820c99	-0.25400236
17	0xbdefc730	-0.11707914
18	0xbe42c08a	-0.1901876
19	0x3dbdf4a7	0.09275179
20	0x3d5d694d	0.0540555
21	0x3de1bed6	0.11022727
22	0xbdbc18ec	-0.09184441
23	0x3df99cd4	0.12188116
24	0xbdf0fa38	-0.117664754
25	0x3e4af09f	0.19818352
26	0xbe8dba7e	-0.27681345
27	0x3d25554e	0.040364556
28	0x3d2ab809	0.041679416
29	0xbe8e02d4	-0.27736533
30	0x3eb9608d	0.36206475
31	0x3e9fbc79	0.3119848
32	0xbd8a5d7e	-0.067561135
33	0x3e281c66	0.16417083
34	0x3ebf115d	0.37317935
35	0x3b3da79f	0.0028939021
36	0x3ea55dad	0.3229803
37	0xbe8b0966	-0.27155608
38	0xbd31af61	-0.043380145
39	0x3e0a55a9	0.1350924
40	0xbe8830fc	-0.26599872
41	0x3e6d8e78	0.23198879
42	0x3e6f2e8e	0.23357603
43	0xbe091539	-0.13387002
44	0x3db7ed77	0.0898084
45	0x3e505b51	0.20347334
46	0xbd02e5e7	-0.031957533
47	0x3dcce63a	0.1000485
48	0x3eb0e401	0.34548953
49	0xbde69cc7	-0.11260372
50	0xbdd3d586	-0.10343461
51	0xbe2ddbbe	-0.16978356
52	0xbe8db93c	-0.27680385
53	0xbe81b6e5	-0.2533485
54	0xbe8df49f	-0.27725694
55	0xbdc8aeff	-0.09799003
56	0x3e2ff4c6	0.17183217
57	0x3e8a52e5	0.27016369
58	0x3e87bcba	0.26511174
59	0x3e7449de	0.23856303
60	0x3ec051b9	0.3756235
61	0x3eec8ab3	0.4619957
62	0x3e0c2e73	0.13689594
63	0x3dbb8b89	0.091574736
64	0x3d9d1315	0.07669655
65	0xbe8dba99	-0.27681425
66	0x3e2f7686	0.17135057
67	0xbdf98f0a	-0.12185486
68	0xbe525ff5	-0.20544417
69	0x3dc788eb	0.09742912
70	0xbe8da55f	-0.2766523
71	0x3e4fabfd	0.20280452
72	0xbe82e1d7	-0.25562927
73	0xbe8dbc1e	-0.27682585
74	0xbe52186d	-0.2051713
75	0x3be95b6f	0.0071214954
76	0xbe8dee0f	-0.27720687
77	0xbddef382	-0.10886289
78	0x3de95e7e	0.11394976
79	0xbd749945	-0.05971648
80	0x3eba1d9a	0.3635071
81	0x3e7bcaa2	0.24589017
82	0x3e5ca641	0.21547796
83	0xbd8a5b4f	-0.06755697
84	0xbdd29c8a	-0.10283764
85	0xbc3188dc	-0.0108358525
86	0x3dcde80e	0.100540265
87	0x3e19a5a2	0.1500459
88	0x3c83036b	0.01599284
89	0xbeb7c657	-0.3589351
90	0x3ebeaf17	0.37242958
91	0x3ddbe6e1	0.10737396
92	0x3e761cf5	0.24034484
93	0x3ea0cfbd	0.31408492
94	0xbdab6749	-0.083693095
95	0x3e1aae39	0.15105523
96	0xbd5ee1ce	-0.054414563
97	0xbe1be6b4	-0.15224725
98	0xbe038c0e	-0.12846395
99	0x3ed5e529	0.41776398
100	0xbe234c69	-0.15947117
101	0xbe2332c7	-0.15937339
102	0x3dc4953e	0.09598778
103	0xbdb99faf	-0.0906366
104	0x3ebcebaf	0.36898562
105	0x3e3431d2	0.1759713
106	0x3c3a91a8	0.011387266
107	0xbeb81fde	-0.35961813
108	0x3d279ca3	0.040920865
109	0xbe64b500	-0.22334671
110	0xbe3c9c8e	-0.18419096
111	0xbe8db1da	-0.27674752
112	0x3c005cf3	0.007834661
113	0xbe922882	-0.2854653
114	0xbe0d75fd	-0.1381454
115	0xbcaccfcf	-0.021095185
116	0x3cb60c9b	0.022222808
117	0x3e080864	0.13284451
118	0xbe414021	-0.1887212
119	0xbe271fed	-0.16320772
120	0xbe8ddd73	-0.27708015
121	0xbe8dc022	-0.27685648
122	0x3e3c644f	0.1839764
123	0x3eb1b716	0.34709996
124	0xbd6c087f	-0.05762529
125	0xbea0f594	-0.3143736
126	0xbd0c5058	-0.03425631
127	0x3e79739f	0.24360512
128	0x3e7f455e	0.24928805
129	0xbe218db8	-0.15776718
130	0xbd643dd1	-0.055723015
131	0x3da1c876	0.07899563
132	0xbc9d40ab	-0.019195875
133	0x3df44992	0.11928095
134	0xbc57e2e2	-0.013176652
135	0xbe359f73	-0.17736606
136	0xbe8ddaa3	-0.2770587
137	0x3e011952	0.12607315
138	0xbe771dc1	-0.24132444
139	0xbe0a9941	-0.13535024
140	0x3e1cb168	0.1530205
141	0xbd653cf9	-0.05596635
142	0x3e911553	0.28336582
143	0x3e8c1da4	0.27366364
144	0xbd0226b1	-0.03177518
145	0x3ea9383d	0.3305072
146	0xbe7d3142	-0.24725822
147	0xbe8de36c	-0.27712572
148	0x3edf9d30	0.43674612
149	0x3ee7e63b	0.4529284
150	0xbdd43226	-0.103611276
151	0xbe1ee896	-0.15518412
152	0xbe25079a	-0.16116181
153	0x3edfb31c	0.43691337
154	0xbd07c878	-0.033150166
155	0x3c83ccd1	0.016088875
156	0x3e3ae1a2	0.18250135
157	0x3ece9854	0.40350592
158	0x3e4087e0	0.18801832
159	0x3d212808	0.039344817
160	0xbdcf960c	-0.10136041
161	0xbe9061fa	-0.2819975
162	0xbd622a57	-0.05521616
163	0x3e43dce6	0.19127235
164	0xbdf9c8a5	-0.12196473
165	0x3dcee4be	0.10102223
166	0x3cf5d7d0	0.030010134
167	0x3daa38c2	0.08311607
168	0xbcbbba30	-0.02291593
169	0x3e0a948c	0.13533229
170	0x3e866eec	0.26256502
171	0x3d8aec00	0.06783295
172	0x3e4bc554	0.19899493
173	0x3d140fa8	0.036147743
174	0x3d567f62	0.052367575
175	0x3d1647c9	0.036689553
176	0xbdb8c02a	-0.090210274
177	0x3e3c7b18	0.18406332
178	0xbd99985d	-0.07499764
179	0x3db009c1	0.085956104
180	0xbd69d10e	-0.057084136
181	0x3d18fd19	0.037350748
182	0x3e89b83c	0.26898372
183	0x3e2cb011	0.16864039
184	0xbe3bfdc5	-0.18358524
185	0xbe27e541	-0.16396047
186	0x3dc3adb6	0.09554617
187	0x3e45f2c4	0.19330889
188	0x3d132c71	0.035931055
189	0xbdd1ea4d	-0.102497675
190	0x3e502e8b	0.20330255
191	0xbd8ec60b	-0.069713674
192	0xbe276506	-0.16347131
193	0x3ebf7539	0.3739412
194	0xbde81b92	-0.113333836
195	0x3eb864de	0.36014456
196	0xbd1663bc	-0.036716208
197	0x3e32e6bd	0.17470832
198	0x3e9ab580	0.302166
199	0x3e66b1a4	0.22528702
200	0x3dd3adce	0.10335885
201	0xbdf17961	-0.11790729
202	0xbd8f93df	-0.07010626
203	0xbe10b90b	-0.14133088
204	0xbcbdeed3	-0.02318517
205	0x3db7edd2	0.089809075
206	0xbe4dc67c	-0.20095247
207	0x3e94127a	0.28920346
208	0xbdf90003	-0.12158205
209	0x3da885eb	0.08228668
210	0xbcb9f823	-0.022701329
211	0x3eb90ff1	0.36144975
212	0xbb82727f	-0.003980934
213	0xbe84ef01	-0.25963596
214	0xbdcd4103	-0.100221656
215	0xbde589c6	-0.11207919
216	0x3e5dface	0.21677706
217	0x3e330001	0.1748047
218	0xbdd2873b	-0.102796994
219	0x3e06cc19	0.13163795
220	0xbcc4464f	-0.023959307
221	0x3e97773a	0.2958315
222	0xbe8c3d1b	-0.2739037
223	0x3e507b6b	0.2035958
224	0x3ad1a48a	0.0015994471
225	0x3e8da575	0.27665296
226	0x3e6ea9d1	0.23306967
227	0x3d76bf66	0.060241126
228	0xbceb8170	-0.028748244
229	0xbe8bd5ca	-0.27311546
230	0x3e58a184	0.21155363
231	0x3e0d1de2	0.1378093
232	0x3df0fcdd	0.1176698
233	0x3de759d2	0.11296429
234	0xbdcca528	-0.099924386
235	0xbe3856f7	-0.18001924
236	0xbe56e7db	-0.20986883
237	0x3e3f4e2a	0.18682161
238	0x3e230d8d	0.15923138
239	0x3daae568	0.08344537
240	0x3e7cf200	0.2470169
241	0x3d7e0601	0.062017445
242	0x3e7ec747	0.24880706
243	0xbeaf4fa8	-0.3424046
244	0x3e2a1d40	0.1661272
245	0xbcf0e6c9	-0.029406922
246	0x3d83b92a	0.064318016
247	0xbde3d38d	-0.111243345
248	0x3de9967d	0.114056565
249	0xbe390d42	-0.18071464
250	0x3e839bff	0.25704953
251	0xbd5f614a	-0.05453614
252	0x3d8421a5	0.0645173
253	0x3e3de88c	0.18545741
254	0x3dd8e6ae	0.10590874
255	0xbb81074b	-0.003937637

l1.bias f4 [50]
0	0x3e8cf2af	0.27528903
1	0x3ead2532	0.3381744
2	0x3e9f6356	0.31130475
3	0x3e9e7e58	0.30955768
4	0x3edb5a0f	0.42842147
5	0x3e8eea89	0.2791331
6	0x3ea8de10	0.3298192
7	0x3eba2c54	0.36361945
8	0x3ea32fd4	0.31872427
9	0x3e9780e4	0.29590523
10	0x3ed2b0d9	0.4115055
11	0x3eb4d14e	0.35315937
12	0x3ea44e83	0.3209115
13	0x3edb56e1	0.4283972
14	0x3e99f6f0	0.3007121
15	0x3ea64722	0.32476145
16	0x3ea70080	0.3261757
17	0x3eadbee8	0.33934712
18	0x3ea52694	0.32255995
19	0x3e71fc91	0.23631503
20	0x3eb6d348	0.3570807
21	0x3e72d00e	0.23712179
22	0x3eb8944e	0.36050647
23	0x3ed7a06b	0.42114577
24	0x3ead07c3	0.33794984
25	0x3ec6830f	0.38771865
26	0x3ea02194	0.31275618
27	0x3ea2bc87	0.3178446
28	0x3e895296	0.2682082
29	0x3eaa007b	0.33203492
30	0x3eb6c426	0.35696524
31	0x3ed47bd5	0.41500726
32	0x3ec216d5	0.37908044
33	0x3eb1ba8b	0.34712633
34	0x3ed64cb5	0.41855398
35	0x3ec93b28	0.39302945
36	0x3eaa8f44	0.33312428
37	0x3e981974	0.2970692
38	0x3ecd5529	0.40104035
39	0x3e9e039a	0.30862123
40	0x3ea47efb	0.32128128
41	0x3ec6c20a	0.38819915
42	0x3eb0c34f	0.3452401
43	0x3eb2263b	0.34794793
44	0x3e6f6c60	0.23381186
45	0x3ebb9482	0.3663674
46	0x3ea63528	0.3246243
47	0x3e96e317	0.2947013
48	0x3ea0ff52	0.31444794
49	0x3eb632c0	0.35585594

l2.weight f4 [50, 50]
0	0x3ea61f6d	0.3244585
1	0x3eb02bc6	0.34408396
2	0xbeabddf8	-0.33567786
3	0xbea71f07	-0.3264086
4	0x3f004533	0.5010559
5	0x3eec9a10	0.4621129
6	0xbcc169c6	-0.023610007
7	0x3e181582	0.14851955
8	0xbc8b3e43	-0.016997462
9	0x3e90afff	0.28259274
10	0x3cc4e5fc	0.024035446
11	0x3c088fcf	0.008335068
12	0x3e81536d	0.2525896
13	0x3e15a9ca	0.1461555
14	0x3e824c51	0.2544885
15	0x3ea1417f	0.31495282
16	0xbe1ef9a1	-0.15524913
17	0xbe5058de	-0.203464
18	0x3e982f2e	0.29723495
19	0x3da51358	0.0806033
20	0xbde63546	-0.1124063
21	0xbdfaa08b	-0.122376524
22	0x3da4f8a4	0.08055237
23	0x3ea9906c	0.33117998
24	0xbed18a2c	-0.4092573
25	0xbe790e9e	-0.24321982
26	0x3e023691	0.12716128
27	0xbd349a54	-0.04409249
28	0xbf0cf0ae	-0.5505475
29	0xbd28345c	-0.04106556
30	0x3e4aba31	0.19797589
31	0x3d0333d1	0.032031838
32	0x3ecb29c5	0.39680305
33	0x3e94023c	0.28907955
34	0x3ec646bf	0.3872585
35	0x3de0bb3b	0.109732114
36	0x3bc4abdf	0.006001934
37	0x3e5e17ee	0.21688816
38	0x3c699202	0.014256002
39	0x3c22967e	0.009923575
40	0xbdb31979	-0.08745093
41	0x3e8200da	0.25391275
42	0x3ebb6e4f	0.36607596
43	0x3e75cc34	0.24003679
44	0xbe11ad1b	-0.14226191
45	0xbd661810	-0.05617529
46	0x3bafb37c	0.0053619724
47	0xbded0979	-0.115740724
48	0xbeb009d6	-0.34382504
49	0xbd3620d3	-0.044464897
50	0xbec6cfa2	-0.38830286
51	0xbe9ab43d	-0.30215636
52	0x3d3e1055	0.046402294
53	0x3e9cb9ad	0.3061041
54	0xbe03dd48	-0.12877381
55	0x3ed60ad8	0.41805148
56	0x3f018323	0.50590724
57	0x3ed2cf34	0.41173708
58	0x3e57da35	0.21079333
59	0xbe293a80	-0.16526222
60	0x3f0b8cbe	0.5451163
61	0xbdb5ce31	-0.088772185
62	0x3f227e92	0.6347438
63	0xbc403fd6	-0.01173397
64	0x3ef188ee	0.47174782
65	0x3e35fd41	0.1777239
66	0x3e8a5ca8	0.27023816
67	0x3eb159d4	0.34638846
68	0x3e93410b	0.2876056
69	0x3e681a50	0.22666287
70	0x3ddff504	0.10935405
71	0x3e8922c1	0.26784328
72	0x3e2a68e6	0.16641578
73	0xbe3a69b7	-0.1820439
74	0x3d5718d5	0.052513916
75	0xbcdd07f3	-0.02698133
76	0x3e4697cc	0.19393843
77	0xbeb864c0	-0.36014366
78	0xbf164df7	-0.58712715
79	0x3e529ca9	0.20567574
80	0x3f00201d	0.50049
81	0xbee55a64	-0.44795525
82	0xbeac1665	-0.33610836
83	0x3f24189e	0.6410006
84	0x3ed78ee7	0.42101213
85	0x3ef05f6f	0.4694781
86	0xbd93f375	-0.0722417
87	0xbed2f18d	-0.41199914
88	0xbe8988da	-0.26862222
89	0x3ed17005	0.40905777
90	0x3eb00b6c	0.34383714
91	0xbec9bc7a	-0.3940161
92	0x3ec63fa9	0.38720444
93	0x3f177008	0.5915532
94	0xbeb5733b	-0.35439476
95	0xbf1386c7	-0.5762753
96	0x3eebfbd9	0.46090582
97	0xbd102e90	-0.035200655
98	0x3e902ee3	0.28160772
99	0x3d7e8495	0.06213816
100	0x3cf1e253	0.029526865
101	0x3ecc6cd3	0.39926776
102	0x3d33ed36	0.043927394
103	0x3e570036	0.20996174
104	0x3e4705fe	0.1943588
105	0xbd918503	-0.07105448
106	0x3ed05df2	0.40696675
107	0xbe31706a	-0.17328039
108	0xbed19bfc	-0.4093932
109	0xbccc8327	-0.024964882
110	0xbe7f33dd	-0.24922128
111	0xbd8d50cb	-0.06900176
112	0x3e6c4dc1	0.23076536
113	0x3e97809c	0.2959031
114	0xbe0b209b	-0.13586657
115	0xbdef3398	-0.116797626
116	0xbebb7309	-0.36611202
117	0xbda7a971	-0.08186615
118	0x3df49ad8	0.119435966
119	0x3ead68cb	0.33869013
120	0x3eb94f28	0.36193204
121	0x3de5152b	0.11185678
122	0x3c23719a	0.009975815
123	0xbe96007c	-0.29297245
124	0x3e960a7d	0.29304877
125	0x3ea7921b	0.32728657
126	0x3eada0c1	0.33911708
127	0xbe2d306d	-0.16913004
128	0xbc1e4606	-0.00966025
129	0x3eb76b1d	0.35823908
130	0xbdeaefbb	-0.11471506
131	0xbc032071	-0.00800334
132	0x3e97c1fe	0.29640192
133	0x3ddfba41	0.10924197
134	0xbd9bc507	-0.07605939
135	0x3f069af8	0.52580214
136	0xba1bec54	-0.00059479964
137	0x3ebbe774	0.36700022
138	0xbe971b29	-0.2951291
139	0x3e9492d4	0.2901827
140	0x3e8218fa	0.2540968
141	0xbe6d4ad6	-0.23173079
142	0xbea685e6	-0.3252403
143	0xbde76717	-0.1129896
144	0x3ee2e115	0.4431235
145	0x3e90fb77	0.28316852
146	0x3e9838bc	0.29730785
147	0x3eb810ae	0.35950226
148	0x3e3567d2	0.17715386
149	0x3e9a419a	0.30128175
150	0xbe205041	-0.15655614
151	0xbf0e01ca	-0.5547148
152	0x3d3dbcdc	0.04632269
153	0x3e27d997	0.16391598
154	0x3e86482d	0.2622694
155	0xbeb5d0ab	-0.35510764
156	0xbe8775c0	-0.26457024
157	0xbdcdc380	-0.10047054
158	0x3ed3527a	0.41273862
159	0x3ee0e731	0.43926385
160	0xbe9b48e2	-0.30329043
161	0x3ef1664c	0.4714836
162	0x3eec5c8e	0.46164364
163	0x3ea078f2	0.31342274
164	0x3b633095	0.0034666408
165	0x3ec5ce97	0.38634178
166	0x3e019dd9	0.1265787
167	0x3e515ed1	0.20446326
168	0x3ea22fae	0.31677002
169	0x3dcd877e	0.10035609
170	0xbebbbcb9	-0.3666742
171	0x3d95dce5	0.07317523
172	0x3edf09eb	0.43562254
173	0x3e75f39c	0.24018711
174	0xbddf07b6	-0.108901426
175	0x3e0b23b0	0.13587832
176	0xbebd0d0f	-0.36924025
177	0x3ee329b1	0.44367746
178	0x3de566db	0.11201259
179	0x3db1833c	0.08667609
180	0xbdf5274a	-0.119703844
181	0x3e521311	0.20515086
182	0x3ec5b115	0.38611665
183	0xbe530933	-0.20608978
184	0x3e23136c	0.15925378
185	0x3ccbacd2	0.02486268
186	0x3e116ffa	0.14202872
187	0xbedd47e0	-0.432189
188	0xbee48486	-0.44632357
189	0x3ec582e7	0.38576433
190	0x3e2c7263	0.1684051
191	0x3e81ccd9	0.253516
192	0x3ee49483	0.44644555
193	0x3da4e319	0.08051128
194	0x3e2f4d75	0.17119391
195	0x3ec7f133	0.39051208
196	0x3e7ddb8e	0.24790785
197	0xbd7751fc	-0.06038092
198	0x3d006064	0.031341925
199	0x39ad3b3f	0.00033041273
200	0x3deded40	0.116175175
201	0xbe9ac72a	-0.30230075
202	0x3ecd566a	0.4010499
203	0x3eec53ad	0.4615759
204	0x3e4c5f56	0.19958243
205	0xbe3dcb2e	-0.18534538
206	0xbf0be5bb	-0.54647416
207	0x3f041ef3	0.51609725
208	0x3e8d9f77	0.27660725
209	0x3ed4cd47	0.41562864
210	0xbe0c7fd1	-0.13720633
211	0x3ecbff2d	0.3984312
212	0x3c9fd3e9	0.019510226
213	0xbe9def17	-0.30846474
214	0x3e2bd6be	0.16781136
215	0x3d3ffd4a	0.046872415
216	0x3f0b1d05	0.54341155
217	0x3e9a3849	0.30121067
218	0xbecc6add	-0.3992528
219	0xbe4c5c79	-0.1995715
220	0x3e9901fd	0.2988433
221	0x3dd6861f	0.104748
222	0x3e5d1d56	0.21593222
223	0x3ee4b6f4	0.44670832
224	0xbddeff2f	-0.10888516
225	0x3e99f5e6	0.30070418
226	0xbe1eeb33	-0.15519409
227	0x3e76c916	0.24100146
228	0x3ed0d699	0.40788725
229	0xbe4f9659	-0.20272197
230	0x3eda2b9f	0.42611405
231	0x3ed2c179	0.41163233
232	0xbefb61f9	-0.49098185
233	0x3e8f2d71	0.27964357
234	0x3c650771	0.013978825
235	0xbf085026	-0.53247297
236	0x3ea73287	0.32655737
237	0xbe02a7a1	-0.12759258
238	0xbea514c8	-0.32242417
239	0x3ddbef9a	0.1073906
240	0xbe2752a0	-0.16340113
241	0x3e87459b	0.26420292
242	0x3d884c57	0.06655186
243	0x3f09797b	0.5370099
244	0xbe5eb195	-0.2174743
245	0x3ee1c4d6	0.44095486
246	0xbe47aca1	-0.19499446
247	0x3e0e328c	0.1388647
248	0xbe4986f9	-0.19680394
249	0x3e820b3c	0.25399196
250	0x3d7d25a3	0.06180347
251	0x3ed3079a	0.41216737
252	0xbd5eebaa	-0.054423966
253	0x3def72b9	0.116918035
254	0x3d184dcb	0.037183564
255	0x3dfc9e7b	0.12334915

l2.bias f4 [50]
0	0xbdeba36d	-0.1150578
1	0x3e675dee	0.22594425
2	0x3e2f5a29	0.17124237
3	0xbc842dc6	-0.016135108
4	0x3e841615	0.25798097
5	0xbb82db3a	-0.003993419
6	0xba843664	-0.001008701
7	0x3e1437e7	0.1447445
8	0xbdb1e1e5	-0.08685664
9	0x3db068a8	0.086137116
10	0x3eb8c377	0.36086628
11	0x3df11bc4	0.11772874
12	0xbb87a94d	-0.0041400553
13	0x3e41ea56	0.18937048
14	0x3db94039	0.090454526
15	0xbd6cd47f	-0.05781984
16	0x3ea30efa	0.31847364
17	0x3e121a00	0.1426773
18	0x3e8a796b	0.2704576
19	0xbe095ab6	-0.1341351
20	0x3d5b9629	0.05361
21	0x3e8dac8d	0.27670708
22	0x3e12156e	0.14265987
23	0x3e0db5ee	0.13838932
24	0x3e248dc3	0.16069703
25	0x3e2d956b	0.1695153
26	0x3e632def	0.22185491
27	0x3dd42324	0.10358265
28	0x3df98f18	0.12185496
29	0x3d7b67b6	0.061378203
30	0x3dc0f09c	0.094208926
31	0x3d20d34c	0.03926401
32	0x3e5e2d7e	0.21697041
33	0x3cc8767d	0.024470562
34	0xbd76350e	-0.06010919
35	0x3d4ecdbb	0.05048917
36	0xbde144f0	-0.10999477
37	0xbe0d4f9d	-0.13799901
38	0xbd8e1668	-0.069378674
39	0x3debfb18	0.11522502
40	0x3d8facc5	0.07015375
41	0x3e065b38	0.13120735
42	0x3decd2e1	0.115636595
43	0x3dc4fc5b	0.096184455
44	0x3d298531	0.041386787
45	0x3cfe1943	0.031017905
46	0x3e3e0a3b	0.1855859
47	0xbdaa221a	-0.083072856
48	0xbca264aa	-0.019823391
49	0x3e4ae81f	0.1981511

l3.weight f4 [42, 50]
0	0xbefa5b41	-0.48897746
1	0xbe7795f1	-0.24178292
2	0xbd8a5f84	-0.067564994
3	0xbd2adf92	-0.04171712
4	0x3e3786b1	0.17922474
5	0xbccfa1de	-0.025345739
6	0x3e919df6	0.28440827
7	0xbe111bb6	-0.14170727
8	0x3e94e888	0.29083657
9	0xbd8f6c72	-0.07003106
10	0xbe381bf7	-0.17979418
11	0xbf0ed187	-0.55788463
12	0xbe104718	-0.1408962
13	0xbef2c26e	-0.47413963
14	0xbdc8724d	-0.09787426
15	0xbf0b6be4	-0.54461503
16	0xbed11964	-0.40839684
17	0xbf0b859f	-0.54500765
18	0xbe93f322	-0.28896433
19	0x3dcbe82a	0.09956391
20	0x3e36d0b5	0.17853053
21	0x3d57a868	0.05265084
22	0xbdc182d6	-0.09448783
23	0x3e4fa218	0.20276678
24	0xbe91d648	-0.28483796
25	0xbf312bf6	-0.69207704
26	0xbf01e9b8	-0.5074725
27	0x3e0aa579	0.13539685
28	0xbf2dadb4	-0.67843175
29	0x3e4fdac7	0.202983
30	0xbed713c5	-0.4200727
31	0xbeba6858	-0.36407733
32	0x3d82e370	0.063910365
33	0xbeb74836	-0.3579728
34	0xbd799855	-0.06093629
35	0x3e8d7078	0.2762487
36	0x3dfb8ad0	0.12282336
37	0x3b15c723	0.002285429
38	0x3eb56b44	0.354334
39	0xbf6a6e31	-0.9157439
40	0xbe9b41ab	-0.30323538
41	0x3d764f85	0.06013443
42	0x3d2fd37f	0.042926308
43	0x3df12134	0.11773911
44	0x3e6f0509	0.23341765
45	0x3d8ecd32	0.06972732
46	0xbf1c0c37	-0.6095614
47	0x3e8e62c6	0.27809733
48	0xbcdf5b00	-0.027265072
49	0x3e80017c	0.25001132
50	0xbe2e1894	-0.17001563
51	0xbbe4713e	-0.0069715073
52	0x3e0d291a	0.1378521
53	0xbf1231b4	-0.5710709
54	0x3e723379	0.23652448
55	0xbe957dcb	-0.29197535
56	0x3e029250	0.12751126
57	0xbdf4c522	-0.119516626
58	0xbe45e7e4	-0.1932674
59	0xbe2ad7f6	-0.16683945
60	0xbd1e2371	-0.03860802
61	0xbf123d4e	-0.57124794
62	0xbd0e170e	-0.034689955
63	0x3e828acd	0.25496522
64	0x3e797e65	0.24364622
65	0xbf13d54f	-0.5774736
66	0x3e94f1ba	0.29090673
67	0x3dad943f	0.08475541
68	0xbe8957d9	-0.26824835
69	0x3cab98b1	0.020946832
70	0x3ce5224a	0.027970452
71	0x3e86df4a	0.2634223
72	0xbeda60ac	-0.4265188
73	0x3e1b0e2e	0.15142128
74	0xbefb889f	-0.4912767
75	0xbec3677a	-0.38164884
76	0x3d393d26	0.04522433
77	0xbe1c8f4d	-0.1528904
78	0xbec97132	-0.39344174
79	0x3dc4f972	0.096178904
80	0x3dfb8166	0.1228054
81	0xbec91fd3	-0.39282092
82	0xbeaf3548	-0.34220338
83	0xbf10f10f	-0.56617826
84	0xbd6f5816	-0.058433615
85	0xbc9a230a	-0.018815536
86	0xbf2f17e7	-0.6839585
87	0x3d5caf7a	0.053878285
88	0x3eab223d	0.3342456
89	0xbf4aa218	-0.79153585
90	0xbf199a9a	-0.6000153
91	0x3e808dfa	0.2510832
92	0xbed38b3d	-0.41317168
93	0x3cc45257	0.023965044
94	0x3e3e24dc	0.18568748
95	0xbf22e86b	-0.6363589
96	0x3b9885d7	0.004654627
97	0x3e6a79ac	0.22897977
98	0x3d04bc62	0.03240622
99	0x3e695808	0.22787488
100	0xbf1761ad	-0.59133416
101	0xbeda5aa1	-0.4264727
102	0x3e7d9265	0.24762876
103	0x3d6c0dde	0.057630412
104	0xbeba7b27	-0.36422083
105	0x3dfe7bc1	0.12425948
106	0x3d701a98	0.05861911
107	0xbf25eef7	-0.64817756
108	0x3e8c2c75	0.27377668
109	0x3e33804c	0.1752941
110	0xbeeeef4a	-0.46666938
111	0x3ea17308	0.31533074
112	0x3dacbaee	0.084340915
113	0x3dd16d9a	0.10225983
114	0x3e657290	0.22406983
115	0xbde63de4	-0.112422734
116	0xbe138eda	-0.14409962
117	0xbeca77bd	-0.39544478
118	0xbebc463c	-0.36772335
119	0xbd2e3ad0	-0.042536557
120	0x3e197e91	0.14989688
121	0xbe05b538	-0.1305741
122	0x3d67e9e6	0.056619547
123	0xbeea64a4	-0.45779908
124	0xbed3feb8	-0.41405272
125	0xbf0f0dec	-0.5588062
126	0xbd9e6c6f	-0.07735526
127	0x3e3887bf	0.18020533
128	0xbf07cd12	-0.5304729
129	0x3e0d28cf	0.13785098
130	0x3d5ba9e8	0.053628832
131	0xbec8280e	-0.3909306
132	0xbe516221	-0.2044759
133	0xbe58ae96	-0.21160349
134	0xbd851c3b	-0.06499525
135	0x3e10f4fd	0.14155956
136	0x3dd5ba92	0.10435976
137	0xbd7491b5	-0.05970927
138	0x3eba0cc3	0.3633786
139	0xbee307f2	-0.44342
140	0xbeb02b57	-0.34408066
141	0xbef7e51c	-0.48416984
142	0xbed4349b	-0.41446385
143	0x3dc7ce27	0.09756117
144	0x3e09141c	0.13386577
145	0xbc937948	-0.018002167
146	0xbe7ea0e3	-0.24866061
147	0x3e973890	0.2953534
148	0xbe1a164d	-0.1504757
149	0xbedb2657	-0.42802688
150	0xbed7ca0e	-0.42146343
151	0xbd0b4d79	-0.03400943
152	0x3dba3a38	0.090931356
153	0xbf182c3a	-0.59442484
154	0xbf085b49	-0.5326429
155	0x3ead00f8	0.33789802
156	0xbeb0bdf7	-0.34519932
157	0xbeec3192	-0.4613157
158	0xbef44fb2	-0.47717053
159	0xbe8064e3	-0.2507697
160	0x3eac457a	0.33646756
161	0x3d8e288f	0.0694133
162	0xbe8cca6f	-0.27498195
163	0xbe9ac7ae	-0.3023047
164	0x3c336b93	0.010950941
165	0xbf368cf8	-0.7130885
166	0x3e0a100d	0.13482685
167	0x3e88b161	0.2669783
168	0x3dc5fcc3	0.09667351
169	0xbd768fa9	-0.0601956
170	0xbe2bcc07	-0.16777049
171	0x3e5db6b7	0.21651731
172	0xbef21c43	-0.47287187
173	0x3eb342a8	0.35011792
174	0x3e83a07b	0.25708374
175	0x3db1bd3f	0.08678674
176	0x3e619a66	0.22031555
177	0xbf0e80ff	-0.5566558
178	0x3e720e3d	0.23638244
179	0xbd7c3724	-0.061576024
180	0x3e478ba2	0.1948686
181	0xbd8bba5f	-0.06822657
182	0x3d320beb	0.043468397
183	0xbf247bf1	-0.6425162
184	0x3c9699b1	0.018383833
185	0xbdce3b2e	-0.100698814
186	0x3e79e4ac	0.24403638
187	0x3d580cb3	0.052746486
188	0xbf3bd05c	-0.73364806
189	0x3dcdc4ac	0.10047278
190	0xbed5a546	-0.41727656
191	0xbe85940b	-0.2608951
192	0x3e903f7b	0.28173432
193	0xbef1062e	-0.47075027
194	0xbe946a11	-0.28987172
195	0x3ebc4d1d	0.36777583
196	0xbf00d7e4	-0.5032942
197	0xbec69926	-0.38788718
198	0xbee66102	-0.44995886
199	0xbebfa3c4	-0.3742963
200	0xbdbbae03	-0.091640495
201	0x3eb2b2a5	0.3490192
202	0xbe149ade	-0.14512202
203	0xbba4878b	-0.005021041
204	0xbc2890e6	-0.010288453
205	0xbdca24b2	-0.0987028
206	0x3d74d1e1	0.05977047
207	0xbeae80bf	-0.340826
208	0xbe0219d6	-0.12705168
209	0x3d869903	0.065721534
210	0xbea3afbf	-0.3197002
211	0x3dfc93cb	0.12332877
212	0x3be94c4e	0.007119692
213	0x3e151ee6	0.14562568
214	0xbc2beed3	-0.010493952
215	0xbd82d54d	-0.0638834
216	0xbecf34a7	-0.40469858
217	0xbf18fec9	-0.5976377
218	0xbed8ebea	-0.42367488
219	0xbd15996f	-0.03652328
220	0x3e57639a	0.21034089
221	0xbbfd2644	-0.007725509
222	0x3e7139ce	0.23557207
223	0xbe0a4193	-0.13501577
224	0x3e25f7a2	0.16207746
225	0xbee32f1e	-0.44371885
226	0xbe977a4a	-0.29585487
227	0x3d379b8a	0.044826068
228	0xbec1a9fc	-0.37825
229	0x3e48ccda	0.19609395
230	0xbe67500e	-0.22589132
231	0x3e0b58e7	0.13608132
232	0xbe887fdc	-0.2666005
233	0x3db68248	0.08911568
234	0x3dd203c6	0.10254626
235	0xbc10b95f	-0.008833258
236	0x3dff681d	0.1247103
237	0xbdba05d3	-0.09083142
238	0xbe0d6c10	-0.13810754
239	0xbf62a8c6	-0.8853878
240	0x3cdc49ce	0.026890662
241	0xbd37fe34	-0.04492016
242	0x3e0f2f92	0.1398299
243	0x3cbea635	0.023272613
244	0x3e0e7818	0.13913
245	0xbe61c3ea	-0.22047392
246	0x3dc98506	0.09839825
247	0xbdd889eb	-0.10573181
248	0x3df24012	0.11828627
249	0xbf07ed42	-0.530964
250	0xbdecab7f	-0.11556148
251	0xbe80c3cd	-0.25149384
252	0xbd8973d2	-0.06711544
253	0x3e444449	0.19166674
254	0xbe0a55f7	-0.13509355
255	0xbeb84d6f	-0.35996577

l3.bias f4 [42]
0	0xbd30ad7a	-0.04313419
1	0xbdead8ea	-0.11467154
2	0xbe0b1ec4	-0.13585955
3	0xbd021a44	-0.03176333
4	0x3daa5578	0.08317083
5	0xbd4eb0d6	-0.050461613
6	0x3ccd7dd2	0.02508441
7	0xbe015af6	-0.12632355
8	0xbdc2918c	-0.09500417
9	0xbda59b06	-0.08086209
10	0x3d73ce52	0.059522934
11	0xbe221e77	-0.15831934
12	0xbdeba09c	-0.11505243
13	0x3d812588	0.06305987
14	0xbaea9698	-0.0017897664
15	0x3e08c96d	0.13358088
16	0xbda64d00	-0.08120155
17	0x3b4f1d4b	0.0031603153
18	0xbd0c0d49	-0.034192357
19	0xbc9d1d74	-0.019179083
20	0xbd9d85bc	-0.076915234
21	0xbdbaf83e	-0.0912938
22	0xbceb3390	-0.02871111
23	0xbdf037e5	-0.11729411
24	0x3ced372a	0.028956968
25	0xbcf59481	-0.029978039
26	0x3d4afcef	0.049557623
27	0xbe07f275	-0.13276084
28	0xbe010cb1	-0.12602498
29	0x3d4240e9	0.047425184
30	0x3c2d1110	0.01056315
31	0xbcda0c40	-0.02661717
32	0xbc9d22ed	-0.019181693
33	0x3deff365	0.11716346
34	0xbd115022	-0.03547681
35	0x3d1cb6cc	0.038260266
36	0x3d3b3a72	0.045710035
37	0x3d34e45c	0.044163093
38	0x3dedad75	0.1160535
39	0x3c1416a1	0.009038598
40	0x3ccc0e35	0.024909118
41	0xbe26d207	-0.16291057
